…
  num_sink_tokens: 4
  use_gradient_checkpointing: True
  use_bf16: True
  encoder: BlockConfig(d_model=2304, n_layers=20, n_heads=16, n_kv_heads=4, d_ff=8192, max_seq_len=4096, sliding_window=None, dropout=0.1, drop_path=0.0, init_std=0.02, use_bias=False, num_experts=1, top_k=1, capacity_factor=1.2, num_shared_experts=0, aux_loss_coef=0.01, router_z_loss_coef=0.001, noise_std=0.1)
  decoder: None

================================================================================

Architecture:
--------------------------------------------------------------------------------
TransformerModel(
  (embed_tokens): Embedding(128256, 2304)
  (encoder): TransformerEncoder(
    (embed_tokens): Embedding(128256, 2304)
    (layers): ModuleList(
      (0-19): 20 x EncoderBlock(
        (attention): AttentionBlock(
          (wq): Linear(in_features=2304, out_features=2304, bias=False)
          (wk): Linear(in_features=2304, out_features=576, bias=False)
          (wv): Linear(in_features=2304, out_features=576, bias=False)
          (wo): Linear(in_features=2304, out_features=2304, bias=False)
          (q_norm): RMSNorm()
          (k_norm): RMSNorm()
          (rope): RotaryPositionalEmbedding()
        )
        (attention_norm): RMSNorm()
        (feed_forward): ExpertChoiceMoE(
          (gate): Linear(in_features=2304, out_features=1, bias=False)
          (experts): ModuleList(
            (0): SwiGLU(
              (w1): Linear(in_features=2304, out_features=8192, bias=False)
              (w2): Linear(in_features=2304, out_features=8192, bias=False)
              (w3): Linear(in_features=8192, out_features=2304, bias=False)
              (dropout): Dropout(p=0.1, inplace=False)
            )
          )
          (shared_experts): ModuleList()
        )
        (ffn_norm): RMSNorm()
        (drop_path): Identity()
      )
    )
    (norm): RMSNorm()
  )
  (head): Linear(in_features=2304, out_features=2, bias=True)
)

================================================================================

Trainable Parameters per Layer:
Layer Name                                                             |      Parameters
------------------------------------------------------------------------------------------
embed_tokens.weight                                                    |     295,501,824
…
