…
  num_sink_tokens: 4
  use_gradient_checkpointing: True
  use_bf16: True
  encoder: None
  decoder: BlockConfig(d_model=1152, n_layers=26, n_heads=4, n_kv_heads=4, d_ff=11264, max_seq_len=131072, sliding_window=None, dropout=0.0, drop_path=0.0, init_std=0.02, use_bias=False, num_experts=1, top_k=1, capacity_factor=1.2, num_shared_experts=0, aux_loss_coef=0.01, router_z_loss_coef=0.001, noise_std=0.1)

================================================================================

Architecture:
--------------------------------------------------------------------------------
TransformerModel(
  (embed_tokens): Embedding(256000, 1152)
  (decoder): TransformerDecoder(
    (embed_tokens): Embedding(256000, 1152)
    (layers): ModuleList(
      (0-25): 26 x DecoderBlock(
        (self_attention): AttentionBlock(
          (wq): Linear(in_features=1152, out_features=1152, bias=False)
          (wk): Linear(in_features=1152, out_features=1152, bias=False)
          (wv): Linear(in_features=1152, out_features=1152, bias=False)
          (wo): Linear(in_features=1152, out_features=1152, bias=False)
          (q_norm): RMSNorm()
          (k_norm): RMSNorm()
          (rope): RotaryPositionalEmbedding()
        )
        (self_attention_norm): RMSNorm()
        (cross_attention): AttentionBlock(
          (wq): Linear(in_features=1152, out_features=1152, bias=False)
          (wk): Linear(in_features=1152, out_features=1152, bias=False)
          (wv): Linear(in_features=1152, out_features=1152, bias=False)
          (wo): Linear(in_features=1152, out_features=1152, bias=False)
          (q_norm): RMSNorm()
          (k_norm): RMSNorm()
        )
        (cross_attention_norm): RMSNorm()
        (feed_forward): ExpertChoiceMoE(
          (gate): Linear(in_features=1152, out_features=1, bias=False)
          (experts): ModuleList(
            (0): SwiGLU(
              (w1): Linear(in_features=1152, out_features=11264, bias=False)
              (w2): Linear(in_features=1152, out_features=11264, bias=False)
              (w3): Linear(in_features=11264, out_features=1152, bias=False)
              (dropout): Dropout(p=0.0, inplace=False)
            )
          )
          (shared_experts): ModuleList()
        )
        (ffn_norm): RMSNorm()
        (drop_path): Identity()
      )
    )
    (norm): RMSNorm()
  )
  (head): Linear(in_features=1152, out_features=256000, bias=False)
)

================================================================================

Trainable Parameters per Layer:
Layer Name                                                             |      Parameters
------------------------------------------------------------------------------------------
embed_tokens.weight                                                    |     294,912,000
…
