…
  encoder: BlockConfig(d_model=2048, n_layers=12, n_heads=16, n_kv_heads=4, d_ff=5632, max_seq_len=4096, sliding_window=4096, dropout=0.0, drop_path=0.0, init_std=0.02, use_bias=False, num_experts=1, top_k=1, capacity_factor=1.2, num_shared_experts=2, aux_loss_coef=0.01, router_z_loss_coef=0.001, noise_std=0.1)
  decoder: BlockConfig(d_model=2048, n_layers=12, n_heads=16, n_kv_heads=4, d_ff=5632, max_seq_len=4096, sliding_window=4096, dropout=0.0, drop_path=0.0, init_std=0.02, use_bias=False, num_experts=1, top_k=1, capacity_factor=1.2, num_shared_experts=2, aux_loss_coef=0.01, router_z_loss_coef=0.001, noise_std=0.1)

================================================================================

Architecture:
--------------------------------------------------------------------------------
TransformerModel(
  (embed_tokens): Embedding(128256, 2048)
  (encoder): TransformerEncoder(
    (embed_tokens): Embedding(128256, 2048)
    (layers): ModuleList(
      (0-11): 12 x EncoderBlock(
        (attention): AttentionBlock(
          (wq): Linear(in_features=2048, out_features=2048, bias=False)
          (wk): Linear(in_features=2048, out_features=512, bias=False)
          (wv): Linear(in_features=2048, out_features=512, bias=False)
          (wo): Linear(in_features=2048, out_features=2048, bias=False)
          (q_norm): RMSNorm()
          (k_norm): RMSNorm()
          (rope): RotaryPositionalEmbedding()
        )
        (attention_norm): RMSNorm()
        (feed_forward): ExpertChoiceMoE(
          (gate): Linear(in_features=2048, out_features=1, bias=False)
          (experts): ModuleList(
            (0): SwiGLU(
              (w1): Linear(in_features=2048, out_features=5632, bias=False)
              (w2): Linear(in_features=2048, out_features=5632, bias=False)
              (w3): Linear(in_features=5632, out_features=2048, bias=False)
              (dropout): Dropout(p=0.0, inplace=False)
            )
          )
          (shared_experts): ModuleList(
            (0-1): 2 x SwiGLU(
              (w1): Linear(in_features=2048, out_features=2816, bias=False)
              (w2): Linear(in_features=2048, out_features=2816, bias=False)
              (w3): Linear(in_features=2816, out_features=2048, bias=False)
              (dropout): Dropout(p=0.0, inplace=False)
            )
          )
        )
        (ffn_norm): RMSNorm()
        (drop_path): Identity()
      )
    )
    (norm): RMSNorm()
  )
  (decoder): TransformerDecoder(
    (embed_tokens): Embedding(128256, 2048)
    (layers): ModuleList(
      (0-11): 12 x DecoderBlock(
        (self_attention): AttentionBlock(
          (wq): Linear(in_features=2048, out_features=2048, bias=False)
          (wk): Linear(in_features=2048, out_features=512, bias=False)
          (wv): Linear(in_features=2048, out_features=512, bias=False)
          (wo): Linear(in_features=2048, out_features=2048, bias=False)
          (q_norm): RMSNorm()
          (k_norm): RMSNorm()
          (rope): RotaryPositionalEmbedding()
        )
        (self_attention_norm): RMSNorm()
        (cross_attention): AttentionBlock(
          (wq): Linear(in_features=2048, out_features=2048, bias=False)
          (wk): Linear(in_features=2048, out_features=512, bias=False)
          (wv): Linear(in_features=2048, out_features=512, bias=False)
          (wo): Linear(in_features=2048, out_features=2048, bias=False)
          (q_norm): RMSNorm()
          (k_norm): RMSNorm()
        )
        (cross_attention_norm): RMSNorm()
        (feed_forward): ExpertChoiceMoE(
          (gate): Linear(in_features=2048, out_features=1, bias=False)
          (experts): ModuleList(
            (0): SwiGLU(
              (w1): Linear(in_features=2048, out_features=5632, bias=False)
              (w2): Linear(in_features=2048, out_features=5632, bias=False)
              (w3): Linear(in_features=5632, out_features=2048, bias=False)
              (dropout): Dropout(p=0.0, inplace=False)
            )
          )
          (shared_experts): ModuleList(
            (0-1): 2 x SwiGLU(
              (w1): Linear(in_features=2048, out_features=2816, bias=False)
              (w2): Linear(in_features=2048, out_features=2816, bias=False)
              (w3): Linear(in_features=2816, out_features=2048, bias=False)
              (dropout): Dropout(p=0.0, inplace=False)
            )
          )
        )
        (ffn_norm): RMSNorm()
        (drop_path): Identity()
      )
    )
    (norm): RMSNorm()
  )
  (head): Linear(in_features=2048, out_features=128256, bias=False)
)

================================================================================

Trainable Parameters per Layer:
Layer Name                                                             |      Parameters
------------------------------------------------------------------------------------------
embed_tokens.weight                                                    |     262,668,288
…
