…
  decoder: BlockConfig(d_model=512, n_layers=8, n_heads=8, n_kv_heads=2, d_ff=1024, max_seq_len=2048, sliding_window=None, dropout=0.0, drop_path=0.0, init_std=0.02, use_bias=False, num_experts=4, top_k=2, capacity_factor=1.25, num_shared_experts=1, aux_loss_coef=0.01, router_z_loss_coef=0.001, noise_std=0.0, attention_type='hybrid', hybrid_ratio=3, linear_n_heads=8, linear_n_kv_heads=4, linear_head_dim=64, linear_conv_kernel=4, moe_routing='token_choice')

================================================================================

Architecture:
--------------------------------------------------------------------------------
TransformerModel(
  (embed_tokens): Embedding(32000, 512)
  (decoder): TransformerDecoder(
    (embed_tokens): Embedding(32000, 512)
    (layers): ModuleList(
      (0-2): 3 x DecoderBlock(
        (self_attention): GatedDeltaNet(
          (wq): Linear(in_features=512, out_features=256, bias=False)
          (wk): Linear(in_features=512, out_features=256, bias=False)
          (wv): Linear(in_features=512, out_features=512, bias=False)
          (wo): Linear(in_features=512, out_features=512, bias=False)
          (q_conv): Conv1d(256, 256, kernel_size=(4,), stride=(1,), padding=(3,), groups=256, bias=False)
          (k_conv): Conv1d(256, 256, kernel_size=(4,), stride=(1,), padding=(3,), groups=256, bias=False)
          (alpha_proj): Linear(in_features=512, out_features=8, bias=True)
          (beta_proj): Linear(in_features=512, out_features=8, bias=True)
          (g_proj): Linear(in_features=512, out_features=512, bias=False)
          (norm_q): RMSNorm()
          (norm_k): RMSNorm()
        )
        (self_attention_norm): RMSNorm()
        (cross_attention): AttentionBlock(
          (wq): Linear(in_features=512, out_features=512, bias=False)
          (wk): Linear(in_features=512, out_features=128, bias=False)
          (wv): Linear(in_features=512, out_features=128, bias=False)
          (wo): Linear(in_features=512, out_features=512, bias=False)
          (q_norm): RMSNorm()
          (k_norm): RMSNorm()
        )
        (cross_attention_norm): RMSNorm()
        (feed_forward): TokenChoiceMoE(
          (gate): Linear(in_features=512, out_features=4, bias=False)
          (experts): ModuleList(
            (0-3): 4 x SwiGLU(
              (w1): Linear(in_features=512, out_features=1024, bias=False)
              (w2): Linear(in_features=512, out_features=1024, bias=False)
              (w3): Linear(in_features=1024, out_features=512, bias=False)
              (dropout): Dropout(p=0.0, inplace=False)
            )
          )
          (shared_experts): ModuleList(
            (0): SwiGLU(
              (w1): Linear(in_features=512, out_features=512, bias=False)
              (w2): Linear(in_features=512, out_features=512, bias=False)
              (w3): Linear(in_features=512, out_features=512, bias=False)
              (dropout): Dropout(p=0.0, inplace=False)
            )
          )
        )
        (ffn_norm): RMSNorm()
        (drop_path): Identity()
      )
      (3): DecoderBlock(
        (self_attention): AttentionBlock(
          (wq): Linear(in_features=512, out_features=512, bias=False)
          (wk): Linear(in_features=512, out_features=128, bias=False)
          (wv): Linear(in_features=512, out_features=128, bias=False)
          (wo): Linear(in_features=512, out_features=512, bias=False)
          (q_norm): RMSNorm()
          (k_norm): RMSNorm()
          (rope): RotaryPositionalEmbedding()
        )
        (self_attention_norm): RMSNorm()
        (cross_attention): AttentionBlock(
          (wq): Linear(in_features=512, out_features=512, bias=False)
          (wk): Linear(in_features=512, out_features=128, bias=False)
          (wv): Linear(in_features=512, out_features=128, bias=False)
          (wo): Linear(in_features=512, out_features=512, bias=False)
          (q_norm): RMSNorm()
          (k_norm): RMSNorm()
        )
        (cross_attention_norm): RMSNorm()
        (feed_forward): TokenChoiceMoE(
          (gate): Linear(in_features=512, out_features=4, bias=False)
          (experts): ModuleList(
            (0-3): 4 x SwiGLU(
              (w1): Linear(in_features=512, out_features=1024, bias=False)
              (w2): Linear(in_features=512, out_features=1024, bias=False)
              (w3): Linear(in_features=1024, out_features=512, bias=False)
              (dropout): Dropout(p=0.0, inplace=False)
            )
          )
          (shared_experts): ModuleList(
            (0): SwiGLU(
              (w1): Linear(in_features=512, out_features=512, bias=False)
              (w2): Linear(in_features=512, out_features=512, bias=False)
              (w3): Linear(in_features=512, out_features=512, bias=False)
              (dropout): Dropout(p=0.0, inplace=False)
            )
          )
        )
        (ffn_norm): RMSNorm()
        (drop_path): Identity()
      )
      (4-6): 3 x DecoderBlock(
        (self_attention): GatedDeltaNet(
          (wq): Linear(in_features=512, out_features=256, bias=False)
          (wk): Linear(in_features=512, out_features=256, bias=False)
          (wv): Linear(in_features=512, out_features=512, bias=False)
          (wo): Linear(in_features=512, out_features=512, bias=False)
          (q_conv): Conv1d(256, 256, kernel_size=(4,), stride=(1,), padding=(3,), groups=256, bias=False)
          (k_conv): Conv1d(256, 256, kernel_size=(4,), stride=(1,), padding=(3,), groups=256, bias=False)
          (alpha_proj): Linear(in_features=512, out_features=8, bias=True)
          (beta_proj): Linear(in_features=512, out_features=8, bias=True)
          (g_proj): Linear(in_features=512, out_features=512, bias=False)
          (norm_q): RMSNorm()
          (norm_k): RMSNorm()
        )
        (self_attention_norm): RMSNorm()
        (cross_attention): AttentionBlock(
          (wq): Linear(in_features=512, out_features=512, bias=False)
          (wk): Linear(in_features=512, out_features=128, bias=False)
          (wv): Linear(in_features=512, out_features=128, bias=False)
          (wo): Linear(in_features=512, out_features=512, bias=False)
          (q_norm): RMSNorm()
          (k_norm): RMSNorm()
        )
        (cross_attention_norm): RMSNorm()
        (feed_forward): TokenChoiceMoE(
          (gate): Linear(in_features=512, out_features=4, bias=False)
          (experts): ModuleList(
            (0-3): 4 x SwiGLU(
              (w1): Linear(in_features=512, out_features=1024, bias=False)
              (w2): Linear(in_features=512, out_features=1024, bias=False)
              (w3): Linear(in_features=1024, out_features=512, bias=False)
              (dropout): Dropout(p=0.0, inplace=False)
            )
          )
          (shared_experts): ModuleList(
            (0): SwiGLU(
              (w1): Linear(in_features=512, out_features=512, bias=False)
              (w2): Linear(in_features=512, out_features=512, bias=False)
              (w3): Linear(in_features=512, out_features=512, bias=False)
              (dropout): Dropout(p=0.0, inplace=False)
            )
          )
        )
        (ffn_norm): RMSNorm()
        (drop_path): Identity()
      )
      (7): DecoderBlock(
        (self_attention): AttentionBlock(
          (wq): Linear(in_features=512, out_features=512, bias=False)
          (wk): Linear(in_features=512, out_features=128, bias=False)
          (wv): Linear(in_features=512, out_features=128, bias=False)
          (wo): Linear(in_features=512, out_features=512, bias=False)
          (q_norm): RMSNorm()
          (k_norm): RMSNorm()
          (rope): RotaryPositionalEmbedding()
        )
        (self_attention_norm): RMSNorm()
        (cross_attention): AttentionBlock(
          (wq): Linear(in_features=512, out_features=512, bias=False)
          (wk): Linear(in_features=512, out_features=128, bias=False)
          (wv): Linear(in_features=512, out_features=128, bias=False)
          (wo): Linear(in_features=512, out_features=512, bias=False)
          (q_norm): RMSNorm()
          (k_norm): RMSNorm()
        )
        (cross_attention_norm): RMSNorm()
        (feed_forward): TokenChoiceMoE(
          (gate): Linear(in_features=512, out_features=4, bias=False)
          (experts): ModuleList(
            (0-3): 4 x SwiGLU(
              (w1): Linear(in_features=512, out_features=1024, bias=False)
              (w2): Linear(in_features=512, out_features=1024, bias=False)
              (w3): Linear(in_features=1024, out_features=512, bias=False)
              (dropout): Dropout(p=0.0, inplace=False)
            )
          )
          (shared_experts): ModuleList(
            (0): SwiGLU(
              (w1): Linear(in_features=512, out_features=512, bias=False)
              (w2): Linear(in_features=512, out_features=512, bias=False)
              (w3): Linear(in_features=512, out_features=512, bias=False)
              (dropout): Dropout(p=0.0, inplace=False)
            )
          )
        )
        (ffn_norm): RMSNorm()
        (drop_path): Identity()
      )
    )
    (norm): RMSNorm()
  )
  (head): Linear(in_features=512, out_features=32000, bias=False)
)

================================================================================

Trainable Parameters per Layer:
Layer Name                                                             |      Parameters
------------------------------------------------------------------------------------------
embed_tokens.weight                                                    |      16,384,000
…
